…
    padding = "valid",  # "valid" means no padding, as we did it already
    activation = "relu", 
    strides = 2 ) %>%
    layer_global_max_pooling_1d() %>%
  layer_dense(128) %>%
  layer_activation("relu") %>%
  
  layer_dense(128) %>%
  layer_dropout(0.5) %>%
  layer_activation("relu") %>%
  
  layer_dense(6) %>%   # single unit output layer
  layer_activation("softmax")

____________________________________________________________________________________
Layer (type)                         Output Shape                      Param #      
====================================================================================
embedding_2 (Embedding)              (None, 300, 10)                   20000        
____________________________________________________________________________________
dropout_3 (Dropout)                  (None, 300, 10)                   0            
____________________________________________________________________________________
conv1d_2 (Conv1D)                    (None, 149, 100)                  3100         
____________________________________________________________________________________
global_max_pooling1d_2 (GlobalMaxPoo (None, 100)                       0            
____________________________________________________________________________________
dense_4 (Dense)                      (None, 128)                       12928        
____________________________________________________________________________________
activation_4 (Activation)            (None, 128)                       0            
____________________________________________________________________________________
dense_5 (Dense)                      (None, 128)                       16512        
____________________________________________________________________________________
dropout_4 (Dropout)                  (None, 128)                       0            
____________________________________________________________________________________
activation_5 (Activation)            (None, 128)                       0            
____________________________________________________________________________________
dense_6 (Dense)                      (None, 6)                         774          
____________________________________________________________________________________
activation_6 (Activation)            (None, 6)                         0            
====================================================================================
Total params: 53,314
Trainable params: 53,314
Non-trainable params: 0
____________________________________________________________________________________

Compile:
cnn_model %>% compile(
  loss = "categorical_crossentropy",
  optimizer = "Adam",
  metrics = "accuracy"
)

Params:

cnn_history <- cnn_model %>%
…
